tf_lite_model.tflite (tflite, 643376 bytes, 12 tensors)

dense_9/bias f4 [256]
00000000: 0649 5fbd 1e84 823d cafc 48be aba0 d5bd
00000010: 8bda d2bd 3d9d 7a3d 3b3d 1b3e 2037 20bd
00000020: 86ff 153c fdcb f3bd a8d9 8bbb c447 ebbd
00000030: fb67 93be 0786 843d ea77 ef3c 5983 dfbd
00000040: 9553 653d 9122 dabd 6251 013c 7684 5d3e
00000050: b264 da3d 9cf5 7fbd c9ea 633b 6d37 713d
00000060: 8e94 8dbd 0b4b fc3d 0279 183e c09d 75be
00000070: 71b5 5b3e f4ef 863d 9ce2 84bc f3ae e5bc
00000080: 68bf 5b3e c3b9 c43e 3e65 873e eee9 1fbe
00000090: 22d5 9abe e1e0 db3d 3399 05bf dd28 b3be
000000a0: f770 523e f44c c83d 9bc4 25be c5c7 883c
000000b0: 25b0 543e 86a8 55be c63d 013e fbbb 43bd
000000c0: 1f4b a7be eb13 a43d a06e 703e 6562 10be
000000d0: 8eec b4be e457 6b3d d976 abbe 6943 1b3e
000000e0: d8f3 1ebe 76fc 2b3e 9e4e 773e 10be 72bd
000000f0: 197b 67bf b615 05be 69df 0ebe b162 9bbe
00000100: 7f42 833e 444c 94bb d71f 02be 370b 833c
00000110: b990 113e 41c1 293e ddee 1e3d fa1b dbbc
00000120: 4707 c5bd 2c23 913d 177d 273c 2f47 83be
00000130: 4dd8 56bd 96d4 513d 3642 993d cfeb 27bc
00000140: 5747 9cbe eb9c a7be 067b b43d a5ac 16be
00000150: a0ab 2ebf 8c81 1b3e 459c 38bd 1fbd 8b3e
00000160: 9ed6 23bc 2888 523e 5a93 acbc e66e 463e
00000170: b348 1fbf 7d41 273e 608d a43b d531 6fbd
00000180: 107c ebbc a71d 173d 4178 c5be 8159 153e
00000190: 55df 36be 21eb f7bc 992f 9fbd e887 06bc
000001a0: f5a4 3abc 6272 3abe c60e a43d 7846 113d
000001b0: 114a 6ebe 8bc1 a93d d694 9ebc f577 3cbe
000001c0: 75e8 23bf 26fc fbbd 70ae f93b 958f ac3b
000001d0: fa1d c7bd fa17 4ebd 0ebd 7ebc 07bb 10bc
000001e0: ecea 8f3c 47e4 41be 7cf6 2fbe ee88 193e
000001f0: 761d b7bd 1e05 9dbb 38a0 e0be 5847 c6be
00000200: a2bd b7be 6613 833b 5a46 2f3e afa7 963c
00000210: 6033 81bd 872f 31be f2a8 ebbe 6e2c 833e
00000220: 6dc5 c6bd 6629 573c ea98 b9be e45d 01bf
00000230: 935e 19bd 6841 48be 84cd 043d 00e4 f8bd
00000240: ba37 323e bb7c bebd 5c86 89bd 9d85 98bd
00000250: adc2 babe 4f8a af3c 2572 e63d 0fe3 743d
00000260: 9b85 053e d623 263e 77f8 343e 4240 13bf
00000270: 036a cfbe 7f48 8dbd 8438 373e 2cf4 99be
00000280: 07a0 ccbc 9c96 92be 1b27 d13d 4e74 2bbe
00000290: 6ef1 7abe 0681 60bd 3bcd 6a3d 013c 93bc
000002a0: 92c4 00bd fa83 e8bd 0aaf d2bd 86a5 98be
000002b0: e687 b33d b40b 3c3e 6357 893d ce38 98be
000002c0: 81c2 ef3d 9ae6 3b3d 9efd 80bd f581 d3be
000002d0: 2f02 9c3d b192 c93d 47bf ec3d efd2 f7bd
000002e0: c6a8 4a3e 3668 30be 9ad6 dbbe 8e2d 553e
000002f0: 5816 d4bd 982c 2e3d cc96 86be ad81 a5be
00000300: a454 043e 8823 9c3d a576 ee3d 092f f33d
00000310: ed89 d13e de55 e43d 2388 a13d 5021 e5be
00000320: ddcd d83d 3b98 343e f663 20be 45cb 3f3e
00000330: 344f 143e 5baf 8bbe 5a35 183e 818d 09be
00000340: 0aba 233e c323 283d 0ce7 10bf 5273 9c3d
00000350: 8b66 f6bd d3aa 383e bea2 363d 3ae5 79be
00000360: 7547 74bd 9aa5 7a3e 5763 9e3e 1a12 d9bd
00000370: f55a 5f3d 8e2e 3fbe 32dc a5be 2c5c 253e
00000380: 393b 003d 31ba 88be 0ad0 a1bd 9420 cbbe
00000390: 3c1d 2fbd ced2 9d3a da75 023e 7823 dc3d
000003a0: efd1 55be 23f8 efbd 7c16 45be 1d5d 05be
000003b0: 70c6 31be af6a a4be 7a8c a73d 0f83 003e
000003c0: d856 483e f8c1 313e 3eb4 07be e1d2 ecbe
000003d0: 35b4 3dbe e3aa 87be dbf4 abbe f5e6 25bc
000003e0: 3a36 3c3d 38cb 9c3e 00cc 313e 10a4 7bbe
000003f0: d8eb 5abe c277 96bd 9679 01be 062a 613d
-0.054513 0.063728556 -0.19627681 -0.104310356 -0.1029559 0.06118511 0.15160076 -0.03911507
0.00915516 -0.11904142 -0.00426789 -0.114882976 -0.28790268 0.06470876 0.029231984 -0.109137245
0.055987913 -0.10651124 0.007892938 0.21632561 0.10663737 -0.06249009 0.0034777394 0.05889075
-0.069131 0.12319001 0.14889911 -0.23985958 0.21455933 0.06588736 -0.016221337 -0.028037524
0.21459734 0.38422975 0.2644443 -0.15616581 -0.30240732 0.107362516 -0.5218689 -0.34992114
0.20550905 0.09780303 -0.1618828 0.01669682 0.20770319 -0.20865068 0.12621221 -0.047786694
-0.326745 0.080116116 0.234797 -0.14100035 -0.35336727 0.057456866 -0.3348911 0.15162434
-0.15522707 0.16795525 0.24151084 -0.05926329 -0.9042221 -0.12996563 -0.13952412 -0.30348733
0.2563667 -0.004525693 -0.12707458 0.015996559 0.14215364 0.16577627 0.038802017 -0.026746739
-0.09620529 0.07086787 0.010222695 -0.25640246 -0.052452374 0.05122813 0.07483332 -0.010249092
-0.30523178 -0.32736906 0.08812527 -0.14714296 -0.6823063 0.15186137 -0.045070905 0.27292725
-0.009999899 0.20559752 -0.021066356 0.19378242 -0.62220305 0.16333576 0.005021736 -0.058397133
-0.028745681 0.036893513 -0.3856831 0.14584924 -0.17858632 -0.030263485 -0.077727504 -0.0082111135
-0.011391868 -0.18207696 0.0801063 0.035467595 -0.23270442 0.082888685 -0.01935808 -0.18405135
-0.64026576 -0.12303953 0.0076196715 0.0052661397 -0.097225145 -0.050315835 -0.015548004 -0.008833653
0.017568074 -0.18934737 -0.1718387 0.14993641 -0.08941166 -0.00479187 -0.43872237 -0.38726306
-0.35886866 0.004000115 0.1711668 0.018390505 -0.06308627 -0.17303286 -0.46027333 0.25619835
-0.09705625 0.013132429 -0.36249477 -0.5053389 -0.03744371 -0.195562 0.032422557 -0.121528625
0.1740407 -0.09301134 -0.0671508 -0.0744736 -0.3647665 0.021428255 0.1125224 0.059786852
0.13039248 0.16224608 0.17672907 -0.57519925 -0.40510568 -0.06898593 0.17892653 -0.300691
-0.02497865 -0.2863053 0.10212537 -0.16743585 -0.2450616 -0.054810546 0.05732463 -0.017972948
-0.031437464 -0.113532975 -0.10287292 -0.29813784 0.08766155 0.1836384 0.06706121 -0.2973084
0.117070206 0.045874216 -0.06298374 -0.41310087 0.07617604 0.09842432 0.11559921 -0.12100779
0.19790944 -0.17227253 -0.42937165 0.20818159 -0.10355824 0.042522997 -0.26286924 -0.32325497
0.12922913 0.076239645 0.116437234 0.118742056 0.40925542 0.1114919 0.07887294 -0.44751978
0.1058614 0.17636196 -0.15663132 0.18729885 0.14483339 -0.27282223 0.14864102 -0.13432886
0.15988937 0.04104973 -0.5660255 0.07639183 -0.12031277 0.18033914 0.044588797 -0.24403849
-0.05963846 0.24477234 0.30935165 -0.10599156 0.054530103 -0.18670103 -0.32394558 0.16148442
0.03130648 -0.26704553 -0.079010084 -0.39673293 -0.04275249 0.0012040974 0.1274027 0.107489526
-0.20880865 -0.1171725 -0.19246858 -0.13023801 -0.17360854 -0.32112643 0.08181091 0.12549995
0.19564378 0.1735915 -0.1325235 -0.46254638 -0.18525775 -0.26497564 -0.33585247 -0.010125865
0.045950152 0.30623794 0.17362976 -0.24574304 -0.2137903 -0.07347061 -0.12644038 0.054971717

dense_8/bias f4 [128]
00000000: bb33 3fbd 5fc7 5bbc f404 f7bd 7028 433c
00000010: 860d e23c ce28 0abe f784 f8bd 4147 b13d
00000020: 61ef 14be 0483 e6bc b592 07bd d7d0 a73d
00000030: 7920 3dbe fded 5fbd 4bfa 20bd 726a 1bbd
00000040: d7bc 06be 5459 4fbd 9f3a 193e 25ae 953d
00000050: 6373 cfbc 14f2 f3bc de21 28be f0c2 80be
00000060: 99c0 d63c aeb2 4b3d f4a8 fbbb 6c8d 533c
00000070: 88b7 55bd 702c f7be 2de8 14bd 9028 5abc
00000080: 8b75 903d baa6 92bc 3dfa b4bd 1dcc 89be
00000090: d631 a93b 56f0 f6bc e47d 70bd f443 76b9
000000a0: a9f6 6abe d5c4 27bd 2461 1bbd dead 2abe
000000b0: c9dd d7bc 6a86 33bd 6f9c 82be ef7c c03d
000000c0: 3d4c 0cbe be6c 8bbe b2b7 c4bc d66d 86be
000000d0: 7e87 05be 098d c0be 85c5 dabc d7bd 9cbd
000000e0: 4599 4d3d bd42 ac3d 757e f73c e5d5 87bc
000000f0: e3bd 143d 6583 8d3d 39d8 203d 4fa5 7dbe
00000100: d47e 0fbe 89e1 d8bd 6852 9c3c e5e4 ee3d
00000110: 5b4d 51bd c316 48bd 01f8 37bc be8b 83be
00000120: 6493 48bd b7b1 d3bd a454 4dbe 9c17 b0bd
00000130: 5111 b83d 90e4 a73d 99f6 af3c 4e2e a1bd
00000140: 16fe 6a3e 6b02 7abd b8bb ac3c 098b 6a3e
00000150: e7d0 9dbc 0ae6 d53d 5c85 09be 4799 66be
00000160: 9fc0 8cbd bf57 b2bd d8bb 25bd 5ece 5e3e
00000170: 2756 8dbd 845a 5c3c a329 41bd 8062 b4bc
00000180: 593d 4c3d eaa9 acba a3a4 ce3c 39f4 cabd
00000190: 98de a1be 0289 7abd 09f7 35bc 6f11 f73a
000001a0: f3a4 9a3d 1a30 39bd 9c51 5bbd 8d23 f73d
000001b0: aac7 5b3d d1aa 49bd 3a35 fbbc 5723 e33d
000001c0: d8de e1bd 21c0 123e 2761 63bd 9de2 c83d
000001d0: 875f 9ebc 93f2 33bd cd30 9d3d 1252 e03b
000001e0: 03c8 51be cefb 2dbd 8cdb 8abd d0a0 11bd
000001f0: 7e76 0f3c 4515 583d 343b 12bd 89f0 ce3d
-0.046680193 -0.013414233 -0.120614916 0.0119114965 0.02759434 -0.13492128 -0.12134736 0.08656169
-0.14544441 -0.028138645 -0.033098895 0.0819413 -0.18469419 -0.054670323 -0.039301198 -0.03794331
-0.13157974 -0.0506223 0.14963768 0.07308606 -0.025323575 -0.029778518 -0.1641917 -0.25148726
0.026214885 0.04973095 -0.007680053 0.012912136 -0.052176982 -0.4827609 -0.036354233 -0.013315335
0.070536695 -0.017901767 -0.08836792 -0.2691354 0.0051634116 -0.030143898 -0.05871381 -0.00023485703
-0.22945656 -0.040959198 -0.037934437 -0.16667888 -0.026350873 -0.04382936 -0.25509974 0.09398829
-0.13700958 -0.272314 -0.024013374 -0.26255673 -0.13039967 -0.376076 -0.026705513 -0.076533966
0.050194997 0.08411167 0.030211667 -0.016581485 0.036313903 0.06909827 0.039268706 -0.24770091
-0.14013225 -0.105898924 0.019082263 0.11664752 -0.051099163 -0.048849832 -0.011228562 -0.25692552
-0.048968688 -0.10336631 -0.20051819 -0.08598253 0.08987678 0.08197892 0.021479892 -0.0787016
0.22948489 -0.061037462 0.021085605 0.229046 -0.019264651 0.10444267 -0.13429779 -0.22519408
-0.06872677 -0.087081425 -0.040462345 0.2175841 -0.06901198 0.013449315 -0.04715885 -0.022019625
0.049863193 -0.0013173197 0.02522499 -0.09909863 -0.31615138 -0.061165817 -0.011106261 0.00188498
0.07550993 -0.04521189 -0.053544626 0.12067328 0.05365721 -0.04923517 -0.030665029 0.11090725
-0.11028832 0.14331104 -0.055512574 0.09808848 -0.01933266 -0.04393251 0.07675324 0.006845721
-0.20486455 -0.042476468 -0.067801565 -0.035553753 0.008756278 0.05275466 -0.03570099 0.10104472

dense_11/bias f4 [10]
00000000: cd92 2dbc 0040 c7be 5377 32bd 2d6c 843e
00000010: 2116 c8bd 0f22 c8be d140 073e a789 473e
00000020: fe67 abbd 6dc0 f0bd
-0.010594082 -0.38916016 -0.043570828 0.25863782 -0.09769846 -0.39088485 0.13208319 0.19486104
-0.08369444 -0.11755452

dense_10/bias f4 [128]
00000000: ca55 dabd c6f2 f4be d7a1 803d 27e2 0f3e
00000010: 7109 15be 1271 f9be 0230 95be 44cd 8c3e
00000020: 454d 58be 1bfa a83e 347e 873e cd82 8b3e
00000030: ba2f 9a3e 0b73 503e 9aea f73e b016 283f
00000040: dba1 6bbe 8fa2 e8be 7676 1a3f 233b 45be
00000050: 12ff 8fbe 2ed7 06bf 70b0 4dbd b6ca bdbd
00000060: d2aa 003f e76d 923e d048 90be 755a 55be
00000070: 15de a1be 746d a63e eb45 85be db89 3f3e
00000080: 3677 8b3d 94f6 e5be e8f7 9bbe c2df 963e
00000090: 5909 02be 6d8c 71bd cdf5 f3bc 8a88 013f
000000a0: b325 5bbe 07c5 16be 080f ab3e 13d5 90be
000000b0: 1db3 933d 12b5 673e f823 abbe 64d3 263c
000000c0: 64a2 64be 0dd9 b13e 7b5a d83d 5f00 5f3e
000000d0: 3b38 c23e 6a92 183f 9705 8ebe 4478 0bbf
000000e0: f20b 1fbd 7f75 933e 8f7b 69be 96da 83bc
000000f0: f7ce bb3e bee6 e03e 2b1d 303e 1e65 1bbe
00000100: 96ad 693d 58bb cbbd 9e06 9c3d 7a44 8abe
00000110: 7336 8f3e 8308 8ebd 9d2a d6be dbf4 753e
00000120: d800 fd3d a797 663d 9cc0 053f e314 2bbe
00000130: 4c20 c43e 5f80 f9be 6d1e e33d c98d 8c3c
00000140: 3057 7abe ed60 b13e 2b49 6fbe 277a 7e3d
00000150: b54b c83e b6bc 823e 9530 a4bd 6c90 933e
00000160: 636e b43e 4e2c bc3e 52c7 4f3e 2406 58be
00000170: 20b9 aebd 5f8a 083f dc91 19be 0d2c 9abc
00000180: f748 ddba f1cc 68be 2c6a 45bd eb00 b63e
00000190: 5b59 663e 664d fa3e eba3 5ebe fe71 0bbf
000001a0: 4bd3 423e 8b2e 533e cfc5 d0be d294 04be
000001b0: d7e0 a1be 99e7 143e 1c25 e13d 5972 e8be
000001c0: 9926 86bd acda 0bbe 8e8b 6dbd f8e2 17bf
000001d0: 664f 77bd c789 74be c39b a3be ac88 8fbe
000001e0: 3450 c5bd 74f7 1b3e 8c6b a7be 9374 c33e
000001f0: 2385 bcbd 171d 2a3d 2bfe fabe df2e b33d
-0.10660894 -0.4784147 0.062808685 0.14051114 -0.14554383 -0.48719078 -0.2913819 0.27500355
-0.21123226 0.33003315 0.26463473 0.2724823 0.30114537 0.20356385 0.48421174 0.6565962
-0.23010962 -0.45436522 0.6033701 -0.1926084 -0.2812429 -0.5267209 -0.050217092 -0.0926718
0.5026065 0.28599474 -0.28180552 -0.20835288 -0.31614748 0.3250538 -0.26029906 0.18704931
0.06809847 -0.44914687 -0.30462575 0.2946759 -0.12698878 -0.05897181 -0.029780293 0.5059897
-0.214011 -0.14723597 0.33409905 -0.28287563 0.072118975 0.22627667 -0.3342588 0.010182235
-0.22327572 0.3473591 0.10564133 0.21777485 0.37933525 0.5959841 -0.2773864 -0.54480386
-0.03882975 0.2880058 -0.2280104 -0.01609544 0.3668134 0.43926042 0.17198627 -0.15175292
0.05705031 -0.09947842 0.0761845 -0.27005368 0.2797123 -0.06935217 -0.41829386 0.24019186
0.123536766 0.05629697 0.52247024 -0.16707186 0.3830589 -0.48730752 0.11089788 0.017157452
-0.24447322 0.3464426 -0.23367755 0.062128212 0.3912026 0.255346 -0.08017079 0.28821123
0.35240468 0.36752552 0.20290878 -0.21096092 -0.085314035 0.5333614 -0.14997047 -0.018819833
-0.0016882707 -0.22734429 -0.048196957 0.35547575 0.22495024 0.48887175 -0.21742217 -0.54470813
0.19025914 0.20623223 -0.40775916 -0.12947395 -0.31616852 0.14541472 0.10993406 -0.4539974
-0.06550331 -0.13657635 -0.057994418 -0.593307 -0.060378455 -0.23880683 -0.31954774 -0.2803396
-0.09634438 0.15231115 -0.3269924 0.38174877 -0.09205081 0.04153165 -0.4902204 0.08749174

conv2d_5/bias f4 [64]
00000000: a632 f4bc 73e9 fc3c a196 8fbe 2b78 d7bd
00000010: fa4b 293e 0953 00be 75fe 5b3e 8cee 4dbc
00000020: 5822 9f3d 72ef a6be 45b8 cbbd 82e8 573e
00000030: f604 56bd 7093 2bbd 3393 1abe acc1 5abc
00000040: 21c8 453d 85fc 89be f93b 923d d515 a0be
00000050: ca08 e9bc 1433 7a3e e355 43bd bf44 363e
00000060: b375 90be ac36 123e ecb8 3cbe a865 10bd
00000070: 191b 9cbd 2ec7 78bd 11f1 6ebe 2546 763d
00000080: 45f0 55be 5ecb 8cbc 4b8e 273e b7ef dd3d
00000090: 6d76 cc3d 88c6 fc3e 46d9 f33c 5c3a bb3d
000000a0: aaf6 98be dc21 013e e38c 9ebc 99b0 acbd
000000b0: a52f 6bbe 52c8 c2bd e3d8 5cbe 5600 5cbe
000000c0: 112d 19be e5ce 64be ae70 b0be 8146 ac3c
000000d0: c3a9 853d 48a2 c73e 1605 cdbc ad0e 55be
000000e0: 0d89 8f3d 446c 42bd 931c 2ebe 5e0b 13bd
000000f0: 55bd 04be 62c7 06be 0714 553e cf4a 72be
-0.029809307 0.030873036 -0.28044608 -0.10520967 0.16532889 -0.12531675 0.21483786 -0.012569081
0.077702224 -0.32604557 -0.09947256 0.21084788 -0.052250825 -0.041888654 -0.15095215 -0.013351839
0.04828656 -0.2695047 0.07140345 -0.31266657 -0.028446574 0.24433547 -0.04768933 0.17799662
-0.28214797 0.14278668 -0.18429917 -0.035253197 -0.07622356 -0.060736828 -0.23334147 0.06012549
-0.20892437 -0.017186817 0.16362874 0.108367376 0.099835254 0.49370217 0.02976669 0.091419905
-0.2987569 0.12610573 -0.01935429 -0.08432121 -0.22967394 -0.09510864 -0.2156711 -0.21484503
-0.14958598 -0.22344549 -0.34460968 0.021029713 0.0652652 0.38990998 -0.02502684 -0.2080638
0.07008562 -0.04746653 -0.17003088 -0.035899512 -0.1296285 -0.13161996 0.20808421 -0.2366135

conv2d_4/bias f4 [32]
00000000: e344 4e3e f1c6 8dbc e2d8 a9bc 5ce6 04bc
00000010: 46df 483a dc83 78be b120 99bc 9864 88bc
00000020: 1f42 263b 5841 f3bd 353c 96bc 2335 8bbb
00000030: cd7c 143d ee0c 06bc c4d7 c4bd 5c8e fdbc
00000040: e5ba f4bc dd5f 0f3c 5db6 8ebd e788 a2bb
00000050: 8f88 d23b 643d 813d 79ec 8bbc 9909 5bbe
00000060: 512b 82bb 2578 f4bd fbb1 cbbe 247d 873d
00000070: 10ef 70bc 22a1 6c3c ad43 353e 2bea c5bd
0.20143466 -0.017306777 -0.0207333 -0.008111563 0.0007662665 -0.2426905 -0.018692346 -0.01664953
0.0025369 -0.11877698 -0.018339256 -0.0042482777 0.03625183 -0.008181794 -0.096114665 -0.030951671
-0.029874275 0.008750883 -0.06968377 -0.0049601677 0.0064249705 0.063105375 -0.017080532 -0.2139038
-0.003972449 -0.11936978 -0.39784226 0.066156656 -0.014705434 0.014442714 0.17701598 -0.096638046

sequential_2/dense_8/MatMul f4 [128, 576]
00000000: c58e bc3c 883d 56bd e361 a4bd f5dd 8dba
00000010: 5853 a9bc 7ff5 d1bd 1d65 0e3d f6b7 9e3c
00000020: e45d 3cbd 6ef5 6dbd e8dc 43bd 9a6a 35bd
00000030: 5cf5 9ebc 3c93 2e3d eab8 c2bc 4d61 a0bd
00000040: c46e b3bd e9c3 adbc b1b9 093d 50fc 173d
00000050: 8aec d23c 066c 72bb 1551 aabd 2359 b2ba
00000060: 696d 6dbd 8d9f 353c b554 d0bd 4944 02be
00000070: e338 0a3d a848 54bb 1c82 1abb 1123 58bd
00000080: 6520 89bd 21ed 47bd 0c3d 90bd a090 7ebd
00000090: 159b 2d3d f4ce 2ebd bd8b 903d 054b 8c3d
000000a0: 236a 10bd ff74 883d 84f2 cdbc 0936 0cbd
000000b0: cedb 5e3d 425a c8bd 6acc 303d 5e21 953d
000000c0: 31ab a4bd 6b52 36bc 1f7a 193d d587 1a3d
000000d0: d7e3 15bd 80c1 e8bc ed20 c9bc 2e93 a4bd
000000e0: bd00 833c 7573 ffbc bad8 2b3d aa36 90bd
000000f0: dfbf 6d3d ba18 c7bd 0946 d2bd 984c 703c
00000100: a2b4 6fbb 8de7 5ebd 39b5 79bd a324 b4bd
00000110: 2714 abbc ec39 b5bc fc17 e6bc f49e a63d
00000120: d125 c7bd 4e86 04bd eeb3 8c3d 4a42 12bd
00000130: 6b19 48bd b3dd 8b3d 5249 51bd e7ae 4b3d
00000140: e092 2e3c b891 723c 7d13 803a 2951 cebd
00000150: d852 24bd 209c a2bd 6d72 1cbd c986 eebd
00000160: f4a8 163d 5fa9 ffbc 7822 12bd 75d8 713d
00000170: fa4d c1bd bf29 96bd c13a 9bbd 8b23 d9bd
00000180: d373 10bb e381 9abd b72d dabd 674b 863c
00000190: 2489 52bd 0d4a 41bc 0cba 85bd 10c5 6d3d
000001a0: f5b2 d9bd 1d79 3d3c 035b 3dbc f2a3 2f3c
000001b0: 48df 5bbd f305 4a3c a11d a8bb 9d8c f9bd
000001c0: 7690 43bd b853 abbc d5db dbbd fd34 b3bc
000001d0: b9f5 293d ab24 02bc 383b acbd afc6 bebd
000001e0: 7ee2 b7bc 5c8b e8bc 88d4 77bc e80a b93d
000001f0: e241 c13c 8e22 60bc a971 0c3d ca6c 5bbd
00000200: 6201 7e3d 1e93 d33c f87f b7bc 3831 a8bd
00000210: 18f5 c0bd f094 163d bd82 ecbc b88c fabd
00000220: 2268 b03d 6cf4 afbd 65b3 a03d e4f1 83bd
00000230: 93fd e13c f4c9 7abd 0d32 683d 0bcb 353c
00000240: 94be 033d 8234 13bd 5b01 09be 4d8c c3bd
00000250: 658c ddbc de73 babb 00f4 90bd b430 d23b
00000260: c004 cd3d 1ed8 b8bc ff47 74bb 3096 31bc
00000270: 5edc e53c 1051 8dbd a685 16bd e454 5ebd
00000280: 88a1 b5bd fafc d7bd 3ee9 16bd 119e 88bd
00000290: 241b 373d e14f 243d 3c78 913c 1808 8fbd
000002a0: 54d8 89bb a6d8 923d 2027 babd a2f1 3a3d
000002b0: be05 e33c 2033 823d cccc 2e3d 45a8 673c
000002c0: 15ec b53b 543a d0bc 561d dcbd 4d27 c9bc
000002d0: 9f67 4c3d ba5f a33d bdde 4cbd 68fb 5dbd
000002e0: 8460 88bd 0e37 70bc 1468 36bd 3dd7 6d3d
000002f0: 839b 953d 508b 7a3c fe70 13bc c913 a93d
00000300: 5200 6cbd 2150 b0bd e388 dbbd 8cf7 7dbd
00000310: 7e7f 1dbd 5409 f23c 0e2c 6c3d e446 1dbd
00000320: 73a7 043d f3a6 813d 91b8 0cbe dfaa 41bd
00000330: ec0e 19bc 5464 05be b012 903b c553 8e3c
00000340: d017 63bb 1537 9ebd 974a e03c ea37 a6bd
00000350: fa0a d0bc 06ef ae3c 2114 1e3d 2170 0bbd
00000360: 252d 5bbd b151 433c 6d92 3ebd 5ae8 473c
00000370: f38b ce3a 1996 183d 5ae5 40bd f11c 1ebc
00000380: 1edc f5bc f59d ff3b df86 9abc 76b3 cbbd
00000390: fd63 fcbb 1c91 a13c 6b34 91bd 595f 58bd
000003a0: 47a7 c63c 16eb abbd 28dc bfbd 3191 94bd
000003b0: 6661 86bd 874b c03c f101 b2bc b1a1 513d
000003c0: 6887 c43c 6353 15bc 45a4 103d 80cb 5bbd
000003d0: 8b75 1c3d 270e f9bc 48ce 7ebd 8c38 623b
000003e0: cd72 1f3d 8db6 c9bd 0b3e f3bd a894 aabd
000003f0: 5fb8 853b 766c a5bb 439e a9bb 1fd7 633d
0.023017297 -0.052304775 -0.08026483 -0.0010823595 -0.020669624 -0.10251903 0.034764398 0.019374829
-0.04598798 -0.058095388 -0.047818094 -0.044291116 -0.019404106 0.042620882 -0.023769815 -0.07831059
-0.08761361 -0.021211581 0.033624355 0.03710586 0.025747556 -0.0036990657 -0.083162464 -0.0013606887
-0.05796567 0.011085403 -0.101724066 -0.12721361 0.033745658 -0.003239194 -0.0023576086 -0.052767817
-0.06695632 -0.048810128 -0.07042894 -0.062149644 0.042384226 -0.042677835 0.07057903 0.06850246
-0.03525747 0.0666294 -0.025140055 -0.03423122 0.05440884 -0.0978284 0.043163694 0.07281755
-0.08040465 -0.011128048 0.03746998 0.037727196 -0.036594238 -0.02841258 -0.024551833 -0.08035885
0.015991563 -0.031182984 0.041954733 -0.07041676 0.05804431 -0.09721513 -0.102672644 0.014666699
-0.0036576171 -0.054420043 -0.060963843 -0.087960504 -0.020883633 -0.022122346 -0.028087609 0.08135787
-0.0972401 -0.032354645 0.06870256 -0.03570775 -0.048852365 0.06829395 -0.051095314 0.049727347
0.010655135 0.01480525 0.0009771433 -0.10074074 -0.04011807 -0.07939935 -0.038195062 -0.11646802
0.03678222 -0.031208692 -0.035677403 0.05904432 -0.09438701 -0.07332181 -0.07579566 -0.106024824
-0.0022041693 -0.07544305 -0.10653251 0.016393377 -0.05140032 -0.01179744 -0.06529626 0.05804926
-0.106298365 0.01156452 -0.011557343 0.01072024 -0.053679734 0.01233052 -0.005130485 -0.12185023
-0.04774519 -0.020913944 -0.10735289 -0.021875853 0.041494105 -0.007943313 -0.084097326 -0.0931524
-0.022446867 -0.028386764 -0.015126355 0.09035283 0.023590986 -0.0136801135 0.034288082 -0.053570546
0.062013038 0.025826987 -0.022399887 -0.08212513 -0.09421748 0.03676313 -0.028870935 -0.12233871
0.08613612 -0.08591542 0.07846717 -0.06442621 0.027586734 -0.061227754 0.056688357 0.0110957725
0.03216417 -0.035938747 -0.13379423 -0.095482446 -0.027044484 -0.005690082 -0.07077789 0.0064144973
0.100106716 -0.02256399 -0.0037274358 -0.01083903 0.02805918 -0.06900227 -0.03674855 -0.054280177
-0.088687 -0.10546298 -0.03684353 -0.06670774 0.044703618 0.04011524 0.017757528 -0.06983966
-0.0042066965 0.07170229 -0.09089494 0.045640595 0.027712699 0.063574076 0.04267578 0.01413924
0.005551825 -0.025418438 -0.10747783 -0.024554873 0.04990351 0.07977243 -0.050017107 -0.054194838
-0.06659034 -0.014661564 -0.04453285 0.058066595 0.07305052 0.015292004 -0.008999107 0.08255727
-0.057617493 -0.086090334 -0.107194684 -0.062003657 -0.038451664 0.029545464 0.0576592 -0.038397685
0.032386255 0.06330671 -0.13742281 -0.047282096 -0.009341937 -0.13026553 0.004396759 0.017373929
-0.0034651645 -0.0772535 0.027379317 -0.081161335 -0.025395859 0.02135421 0.038593415 -0.03404248
-0.05350985 0.011921332 -0.04652636 0.012201393 0.0015758261 0.03725252 -0.047093727 -0.009650455
-0.030012187 0.0078008124 -0.01886314 -0.09946339 -0.007702349 0.019722514 -0.07090076 -0.052825306
0.024249686 -0.083944485 -0.09368163 -0.072542556 -0.06561546 0.023473514 -0.021729441 0.05117959
0.023990348 -0.009114119 0.03531291 -0.05366087 0.038198035 -0.030402256 -0.062208444 0.0034518568
0.038927842 -0.09849272 -0.11877068 -0.08329135 0.0040808166 -0.00504833 -0.005176337 0.055625077

sequential_2/dense_9/MatMul f4 [256, 128]
00000000: 6ec0 0ebd 0803 b73e e0ef fb3a f1f5 303e
00000010: b8d8 2c3e f29a 17bd 4e67 36bd c0b4 473d
00000020: c07f 8bbc 096f b03d 779a b23d 3600 cb3c
00000030: 0fb5 26be 5b90 033e d8f1 303d c762 80be
00000040: 8a1d 14bb 50e1 5b3d 2f6d 1dbd 5437 bfbe
00000050: 484a c6bd 1a34 efbd c106 6dbe 9b0b 70be
00000060: 6e0a 82be d410 29be 7fba acbe d2c3 97bc
00000070: 06b3 ebbd f81b 703e 1eb0 9abd b351 d83c
00000080: edb5 55bc a56b b4be 0972 0b3e be40 eebd
00000090: 3a6b 963d 3010 f13c fc31 973d 246d 91bd
000000a0: 9170 bd3d 7260 cebc d506 693d 369d aa3a
000000b0: 5739 14bd 0056 a13c 2406 91bb e2a4 2b3c
000000c0: b992 29be 781a 82bd 97e6 b53d 6991 debd
000000d0: d8cd febd 5614 1f3d 2fbe ce3b 096d e33d
000000e0: 2edf ac3d b47d 01be 7d0a b5be eaa2 7ebe
000000f0: 2451 ccbe 3e5c b8be 2328 b4be d488 0d3e
00000100: f66b 753d 120f 44be 4e0a 14be aa6d 9d3e
00000110: 8123 7b3c 8d27 c83d 777a 25bc 927b 5b3c
00000120: 0174 5dbd 68f6 77bd 7993 eabe d8a0 84be
00000130: 483f 2ebe 99f2 9abe 1114 fa3d 404e 02bf
00000140: c466 063e fe5e c43d 04c4 e5be e962 f6bd
00000150: 48c6 943d d10c 80be f21f 95bd 683b cf3d
00000160: af02 e53b 441a c5bd 74ca b7bd 1b62 1ebe
00000170: ef58 9b3e 8dec acbd 3b2e babd 5d91 16bd
00000180: 7014 bfbe 4299 9b3d 6bcc 083e 048a bf3d
00000190: 798d 8a3d dd16 42bd b031 be3e 1b93 b0be
000001a0: b660 53be 91a3 0ebb 6224 163d eae7 b3bd
000001b0: 5791 583d c948 423e 0e9b fcbe 01b5 8d3b
000001c0: ae8e 093e 48c3 7ebe f939 dfbe 7dfe dc3d
000001d0: 8150 f23d 0658 753a 841b c8be a7d3 1e3d
000001e0: f818 4fbe 22bf ff3c 0f0d b8be d094 71bd
000001f0: a1f6 e9be e975 51be 0d9e 083d 6e47 e6be
00000200: c1dc 9d3d 6d1d 33be 5947 0fbe 418f 813d
00000210: fa22 01bf 8cd1 43bd f10e af3e d8eb 3bbe
00000220: 5bf3 5cbe a68d 2cbd ce3f 95bb 69c1 aabd
00000230: 3172 823e cf47 283d 607c 00be 1100 cebd
00000240: 5e11 d53e 992a c0bd fa09 6d3c e44b ecbd
00000250: cd54 023e e538 c43a 2396 e13c ead8 373e
00000260: 9b01 433d 3dd3 90bd 3a2b ba3e 5559 60bc
00000270: 1fb8 e83e bde9 5f3d 0071 4e3d ba6a 9ebd
00000280: 91d8 bcbe 2da8 96bc ea5b 54bd b383 cfbc
00000290: c642 fd3d d394 a73c 1e21 acbd bab0 93be
000002a0: b919 91bd 0582 923d 6362 5bbd c090 3d3e
000002b0: f691 ce3d 64ae 553d 7c94 4d3d 066a 193d
000002c0: 9877 d73d 1e99 b7bd cd8c 5bbd 41c0 673e
000002d0: 1017 d83b 4786 883e 6fad 41bd c0f8 9bbd
000002e0: 41be 88be 6c2a 62be bc72 f13d ed69 cb3e
000002f0: b180 033e be2c 80bd 399e 6c3e ab3e 853c
00000300: 4834 f53c 0a02 8b3d ae2e 933e 1858 013e
00000310: 687e 4c3d 4960 cc3c 9e17 05be bfc8 d43d
00000320: 6463 edbc 7b94 783e 7801 753e fe30 d5bd
00000330: 90d3 e83d 8163 04be 8454 8bbe 8598 973e
00000340: e351 e9be 30f7 e93d dbe0 4f3e 4fc9 3ebe
00000350: a681 adbe fd36 fcbe 216e b83d b7b4 de3b
00000360: 2d81 a53d d55f e73d e80b cc3b 2090 28be
00000370: 1355 8dbe 2633 cabe f9e6 d63d 423f a43d
00000380: 3daf d8bc f8e8 063e 66d7 40be 2b5e cf3d
00000390: d730 d3bd 773e 0c3d 99d4 ebbe f346 453e
000003a0: 8141 48be 4418 113e c9db 123e 2f97 1f3d
000003b0: 77f8 6c3e b067 f5bd 0a03 283e 04a1 e2be
000003c0: db0c 75bd 5ee7 bb3e 3adb 973e 32fc 53bf
000003d0: af8a e7bd 9471 8d3c cbdb a8be c698 e73d
000003e0: c1cc 6d3c 689b c03d d530 77be 3cdf 03bd
000003f0: fa97 9d3e ac9e 9c3c 2145 35bd 5ade 703e
-0.034851484 0.357445 0.0019221269 0.17281319 0.16879547 -0.037013 -0.044532113 0.04875636
-0.01702869 0.08614928 0.08720868 0.024780374 -0.16280006 0.12848036 0.04319939 -0.2507536
-0.0022600614 0.05368167 -0.038434204 -0.373469 -0.09682137 -0.116798595 -0.23147108 -0.23441927
-0.25398582 -0.16510326 -0.33736035 -0.018525992 -0.115087554 0.23448169 -0.07553123 0.026406145
-0.013043863 -0.35238376 0.1361772 -0.11633442 0.073446706 0.029426664 0.07382581 -0.07100895
0.09249986 -0.025192473 0.05689128 0.0013016823 -0.036187496 0.019694328 -0.004425781 0.010476323
-0.16559877 -0.06352705 0.08881872 -0.108675785 -0.12441605 0.038837753 0.0063092927 0.11104781
0.08441006 -0.12645608 -0.35359564 -0.24866834 -0.39905655 -0.36007875 -0.35186872 0.13821727
0.059917413 -0.19146374 -0.14457056 0.3074773 0.015328289 0.09773169 -0.010099999 0.013396161
-0.054065708 -0.060537726 -0.45815638 -0.25903964 -0.17016327 -0.30263212 0.122108586 -0.5090065
0.1312514 0.09588431 -0.4487611 -0.12030584 0.07264382 -0.25009778 -0.07281484 0.10118753
0.0069888453 -0.096241504 -0.08974162 -0.15467112 0.30341288 -0.08443556 -0.09090849 -0.036759723
-0.3732028 0.07597591 0.1335923 0.09352496 0.06765265 -0.047385085 0.37147284 -0.34487233
-0.20642361 -0.0021764974 0.03665579 -0.087844685 0.052872982 0.18973078 -0.49337047 0.004324556
0.13433334 -0.24879181 -0.43598917 0.10790727 0.11831761 0.0009359125 -0.39083493 0.038776066
-0.20224369 0.031219069 -0.35947463 -0.05897981 -0.45695975 -0.20455135 0.033353854 -0.44976372
0.07708121 -0.17491694 -0.1399206 0.06326152 -0.50443995 -0.04780726 0.34191087 -0.18351686
-0.21577208 -0.042127274 -0.0045547253 -0.08337671 0.25477746 0.041084107 -0.12547445 -0.100586064
0.41614813 -0.09383125 0.014467711 -0.115379125 0.12727661 0.0014970569 0.027537411 0.1795384
0.047608953 -0.070715405 0.36361104 -0.013693173 0.45452973 0.05466627 0.050400734 -0.077352
-0.36883977 -0.01839074 -0.05184547 -0.025331354 0.12366252 0.020456707 -0.08404754 -0.2884577
-0.07084984 0.071537055 -0.053560626 0.18512249 0.100864336 0.052168265 0.050190434 0.037454627
0.105208576 -0.08964752 -0.053601075 0.22631933 0.006594546 0.26664945 -0.04728454 -0.07615805
-0.26707652 -0.22086495 0.11789462 0.39729252 0.1284206 -0.06258534 0.23107232 0.016265234
0.029932156 0.06787498 0.2874655 0.12631261 0.049925238 0.024948256 -0.1299729 0.10389852
-0.028978057 0.24275391 0.23926342 -0.10409735 0.11368477 -0.12928583 -0.27212918 0.2960855
-0.45570287 0.114241004 0.2030062 -0.1863148 -0.33887976 -0.49260703 0.090053804 0.006796445
0.08081279 0.112975754 0.0062270053 -0.1646123 -0.2760397 -0.39492148 0.10493273 0.08019878
-0.026450748 0.13174808 -0.18832168 0.10125383 -0.1031205 0.03423926 -0.46060637 0.19265346
-0.19556238 0.14169413 0.14341654 0.03896254 0.23141657 -0.119826674 0.1640741 -0.4426347
-0.059826713 0.36699957 0.29659444 -0.82806695 -0.11305749 0.017266072 -0.3298019 0.11308436
0.014514149 0.094046414 -0.24139722 -0.032195315 0.3078001 0.01911863 -0.04425538 0.2352232

sequential_2/dense_10/MatMul f4 [128, 256]
00000000: 1d66 083d da36 a6bd 13f9 30bb c40a 7fbd
00000010: b9ac 9bbd aaf4 84bd 9d5d 1cbe f4c1 2cbd
00000020: 784b 5fbd 553d 143d 84d6 f8bd e947 f6bd
00000030: 3b0c 9cbc 6aa0 90bc 4cfc c2bd 0863 bfbd
00000040: df73 cabd df52 023d ff3f 03bd 08fc cdbb
00000050: 2bce 41be a346 873d 7c80 463d 23c6 4dbd
00000060: 1602 9a3c a06b 0dbe 29be ab3d 5b72 17be
00000070: b60f 47bc ad1b c7bc 5833 a6bd 9c17 e23c
00000080: d16a c6bd 6df7 78bd 7598 13bc e35c d4bd
00000090: f2f6 0fbe 1217 d0bd edfb cc3b 2436 9c3c
000000a0: f2dd 9d3b dae1 a9bd 62e3 133c 2699 23be
000000b0: dfce bdbd 1877 253d a361 6c3c 5fdf 3fbd
000000c0: 4b2e 073d 7e87 7bbd ba1c 5abd 7a96 f4bc
000000d0: 5faf 71bd 4c94 5cbc e019 c5bd 1d0a 8c3d
000000e0: 8a48 ee3b 3651 d6bc e7c6 8cbd 11a4 8cbd
000000f0: ee33 cab9 8a08 29be c2d4 c8bd ba26 253d
00000100: 56eb 373c e30c 673d 6220 4d3d 9e88 b1bd
00000110: d091 c2bc ac64 c8bd 61c5 19be a2f5 533d
00000120: 0b66 c7bd ab3a 12bd a6b2 6cba 83ec b6bd
00000130: 6f2f 343d 69c0 59bc 3a12 08be 22cd d3bd
00000140: a251 0dbe e921 b8bd 563d 23be a929 16be
00000150: 13ec b13d 2349 2e3d 54ac c5bd 3ddc 52bc
00000160: eecb 033d 059a 4f3d 92ad ebbd 10c9 02be
00000170: dc6c fbbd 5bf7 df3c fe2f 98bd 4581 29be
00000180: f6e4 883c 855e 81bd 979d e2bd 3b3e b1bd
00000190: b239 19be 3c8c 9bbc 71e4 0ebd bc42 c83b
000001a0: 1566 d8bd 16c0 af3d 25fe aabb 99d6 00be
000001b0: 1961 9cbd a12c afbd ff8a 003c fd3d e7bd
000001c0: 87d4 b0bd db83 c73d 0905 633d 79df 0dbe
000001d0: 80ee 16bd 9286 debd 95f6 30bd 928a 1e3d
000001e0: 6f73 84bd 3c7c 5c3c 7d50 e5bd 6dbd 8fbc
000001f0: c0c3 f4bc 791c b1bd 54d8 863d f3dc 11be
00000200: 3ec2 e1bc 7c1b 23bb ab63 b03d 61da bebd
00000210: be63 9a3d 6ed0 163c 63af c0bd 6c87 e63a
00000220: 02f9 8dbd f73b c7bd 5800 b2bd 95b2 a2bd
00000230: 2d26 f7bd ba2e 0dbe f6ac 00be ee4e 92bd
00000240: 82ff c8bd 23b1 8cbd b844 27bd dd09 dbbd
00000250: 6aca 0ebc aeac 8e3d 0357 e9bd bdba 64bd
00000260: bcb9 10be e7e2 0fbe 311e 74bc de3a 0bbe
00000270: 62be ffbd 79bc 68bd 6132 e3bd f360 393d
00000280: a125 42be f029 29bd 9a1f e6bd c3a0 dfbd
00000290: 9cf0 c0bd d597 c1bc 7887 35bd 6698 973d
000002a0: d576 b8bd d508 5ebd 7a48 b4bc 747f 723d
000002b0: 7a36 c5bd 0759 bebd b42d 02be 9783 2abd
000002c0: 5b19 6abd 921c 18bd d3e2 783c ac6b 1cbd
000002d0: 7b9f 013d 9573 1ebe a210 963d 4ec0 e1b7
000002e0: ff08 dfbd 5310 8fbd 1369 6cbd 193e 03bd
000002f0: 131c a4bd 017f 2abd d47f 1abd f4cd b6bd
00000300: 1ec8 febc 2107 a2bc b3ca 03bd f4b0 4ebd
00000310: f111 863d 0641 f23c 5784 593a 4c01 dbbd
00000320: 725a f0bd d523 0cbe b9f0 483b 94a8 0f3d
00000330: 55ba 16be cc5c a0bd 4489 e3bc 30b9 0ebc
00000340: f089 fa3d ec4b 2bbe c645 b5bd f17f e2bd
00000350: 7004 83bb 23f5 32be 59bf 82bd d43f 603d
00000360: 80ed d13d 6f0d ec3c 9c2b aabd f315 fb3c
00000370: 83f6 27be fa87 f9ba f846 a33c d339 433d
00000380: bac8 8dbd 8c14 25be 646b c0bd 862f 46bc
00000390: ac77 803d 7c82 933d 3b40 ebbd 0a5a 3e3d
000003a0: 3949 493d dfd5 f5bd 7781 07be 0de1 17be
000003b0: e56b ed3d cb37 8b3d d489 a3bd c88c 8b3d
000003c0: 67b0 a03b ebd2 c9bd ba4d 3cbd 3d79 ddbd
000003d0: ecb9 1dbe 3fd4 c23d 293d 8fbd 023d f43c
000003e0: 6ed1 5f3d ab39 f23b aa36 2ebe abf8 a9bd
000003f0: d7f6 d5bb 7625 d3bc a1dc c4bd ba85 c1bd
0.033300508 -0.08115931 -0.0027003929 -0.062266126 -0.076013036 -0.064919785 -0.15270086 -0.042177156
-0.054515332 0.036191303 -0.121502906 -0.120254345 -0.0190488 -0.017654616 -0.09520778 -0.093450606
-0.09885382 0.031817313 -0.032043453 -0.006286148 -0.18926303 0.0660527 0.048462376 -0.050237786
0.018799823 -0.13810587 0.083858795 -0.14789717 -0.012149742 -0.024305189 -0.08115262 0.027599148
-0.09688342 -0.06078284 -0.009008517 -0.10369279 -0.14059046 -0.1016065 0.006255618 0.019068785
0.0048177177 -0.08295031 0.00902638 -0.1597639 -0.09267973 0.04039678 0.014427575 -0.046843883
0.033003133 -0.061408512 -0.053250052 -0.029856909 -0.059005138 -0.013463091 -0.09624076 0.068378665
0.007271831 -0.026161771 -0.06873875 -0.06867231 -0.00038567133 -0.16507164 -0.09806205 0.040320136
0.011225542 0.056408774 0.05007971 -0.08668636 -0.02375117 -0.09784827 -0.150167 0.051747926
-0.0973626 -0.03570048 -0.0009029306 -0.0893183 0.04399055 -0.013290503 -0.13288203 -0.1034186
-0.13800672 -0.08990843 -0.15941367 -0.1466433 0.08687606 0.042550217 -0.096520096 -0.012869892
0.032176904 0.050683994 -0.11507715 -0.12772012 -0.12276623 0.027339628 -0.07431029 -0.16553219
0.01671074 -0.06316856 -0.11065214 -0.08654448 -0.14963415 -0.018987767 -0.034885827 0.006111471
-0.105663456 0.08581559 -0.0052182847 -0.12581863 -0.076357074 -0.08553434 0.007845639 -0.1129112
-0.086342864 0.09741946 0.055424724 -0.1385478 -0.036848545 -0.10865511 -0.04320391 0.03870637
-0.0646733 0.013457354 -0.111969925 -0.01754638 -0.029878497 -0.08648009 0.0658423 -0.14244442
-0.027558442 -0.0024888208 0.0861276 -0.09318996 0.075385556 0.009204967 -0.09408452 0.0017587966
-0.0693226 -0.09728234 -0.08691472 -0.07944218 -0.12067828 -0.13787356 -0.1256598 -0.07143961
-0.09814359 -0.06869724 -0.04083702 -0.10695241 -0.008715251 0.0696653 -0.11393549 -0.05584215
-0.14133352 -0.140514 -0.014899776 -0.13596675 -0.124874845 -0.056820367 -0.110935934 0.045258474
-0.18959667 -0.04129976 -0.11236496 -0.10919335 -0.094208926 -0.02363197 -0.044318646 0.074021146
-0.090070404 -0.05420764 -0.022007216 0.05920358 -0.09629531 -0.09294324 -0.12712747 -0.0416294
-0.057153087 -0.03713662 0.015190798 -0.03818862 0.031646233 -0.15473779 0.07327391 -2.6911639e-05
-0.10890388 -0.069855355 -0.057717394 -0.032041643 -0.08013167 -0.041625027 -0.037719563 -0.08926001
-0.031101283 -0.01977879 -0.03217573 -0.050461724 0.06546391 0.029572021 0.0008297613 -0.10693607
-0.11736001 -0.13685544 0.003066106 0.035072878 -0.14719518 -0.078301996 -0.027775414 -0.008711144
0.12233341 -0.1672818 -0.08851199 -0.11059559 -0.0039983317 -0.17476325 -0.06384153 0.05474837
0.10250378 0.028815 -0.08309099 0.030650115 -0.1640263 -0.0019037717 0.019931301 0.047662567
-0.06923051 -0.1612112 -0.09395483 -0.012096291 0.062728256 0.07202622 -0.1148686 0.046472587
0.049142096 -0.12003683 -0.1323298 -0.14831944 0.11592845 0.06797751 -0.07985273 0.06813961
0.0049038413 -0.098546825 -0.045972563 -0.1081414 -0.15402955 0.09513139 -0.06994087 0.029814247
0.054643087 0.0073921285 -0.1701304 -0.08299383 -0.0065296697 -0.025774699 -0.09612394 -0.094493344

sequential_2/dense_11/MatMul f4 [10, 128]
00000000: c1b6 aeb9 57a4 02be 93f6 e23d 5ef2 2a3e
00000010: 96a1 eebe 753d 1a3d 3f74 1abe 9cb5 68bd
00000020: 14b5 85be 8ba8 063e 3140 21bd 543d dd3d
00000030: 55fe 7abe a4c1 ca3b 9c13 303e 128f db3d
00000040: 5642 cdbe 9e28 4abe 91bf 5a3e 8393 8dbe
00000050: bed0 24bf 4502 5dbd bc64 00bf f6c1 29bd
00000060: 19cc dd3d 380a 4abd 55cc 96be 365d a9be
00000070: 21a0 10bd e6a4 003e 2e08 b6be 6600 bebe
00000080: 28fb 19bf d25f 8ebe 613d 31bd db1c 15bf
00000090: 1a5a 89be 0648 e7be aa0a adbe 9ae0 b63d
000000a0: 3457 0dbf 2fda 77bd 4a28 77bd 475d 83be
000000b0: 57be 83bf 0af1 103d 6411 eebe 09cf 9fbd
000000c0: 63f0 91be c46c 3ebe f282 23be 23c8 bebe
000000d0: fe78 a13c b5ca 45bd 1bcc 98be c6a8 1cbe
000000e0: 591f 01be 1e5c 0cbf 4358 0bbf 4173 cdbe
000000f0: 4790 8d3d e3ad 3abe 951a a03d 924d 42be
00000100: cd90 cebe 504e c2be 2385 423d 5209 b0be
00000110: 1268 6f3c b86b 96be 8dd8 a9bc fdb5 9bbe
00000120: 8976 d63d 5e4f 0d3e 74f2 81be 085a f1be
00000130: 182f 163e 0537 8ebd 4bf6 843d 6b67 963b
00000140: d07c babd 2665 ab3d 1ba4 7fbd 7559 f43d
00000150: 8440 abbf c208 84bd 0533 b0be 145f e4bd
00000160: b257 32be 5c80 d2be 0e4c d039 1589 cabe
00000170: 1131 4abd 7ce6 c5bb 0c59 71be 81d4 b7be
00000180: d9df 24bd d965 53bf 6dc1 a83d 1d02 0c3e
00000190: ef1c fe3c 3948 dd3d d59a 6ebd e3ce a0bd
000001a0: 3791 edbe 6ff4 31be 43af 89be b2d4 4abe
000001b0: 178b 28bd 1002 c0bd 1fcc 80be 0685 b9be
000001c0: e653 e8be 1fd5 53be 2aef 08be b5a1 ebbc
000001d0: ccca 0ebd 8b49 90bd 7ec0 86bd 1662 c53d
000001e0: ae8a 76be 08a9 e4bd 62e1 73be 3616 72be
000001f0: 41f8 273d 6360 60bb ba3a 5abe 7206 13be
00000200: 992b 4bbe 73cb 55b9 3f98 05bf 6130 6c3e
00000210: 4ef9 6abf 8629 7bbe b992 1c3e 2620 09bf
00000220: f3e1 80bf 0172 c23c 519a 5cbf 81ac ac3d
00000230: e467 8c3d 8c54 b4be 2aad 4e3e ec5f 43bf
00000240: cb1d 56bf 5492 713d dfec 0e3e 27fc aabe
00000250: 3a80 33be 667c dabd ec47 edbe 6678 7abf
00000260: a72c 0cbe c5b3 fc3c 2853 7fbe 50e0 91bf
00000270: 4661 96be 0d45 253e d097 35be 6ac9 a9bf
00000280: 1fa7 e5be 24db 423d 73c4 adbd 6da0 a8bf
00000290: 6c65 0dbf 19d0 3cbe 3fcd 2ebf d22f 94be
000002a0: fa44 74bf 4e42 2abf e4eb f9bd 5d48 93bd
000002b0: 8430 cabf ae60 84be a238 e5be d4a0 89bd
000002c0: cb79 70bc ed4a 2ebf 4d98 0abd 8f6c a83d
000002d0: e533 92be a2c8 f7be 092e 61be a08a 1abd
000002e0: 88d4 d93c 8fb7 fcbd 1a76 68bd e633 a03d
000002f0: 88ac a63d 9990 d0be b834 4fbe fff4 89be
00000300: d92d 23be 7451 f3be 51ac 52bf effd 963d
00000310: 5002 273e fb45 a2bc 2d68 0fbf 2291 bbbe
00000320: d2d4 82be 3368 cc3d ffec 83be 53c6 9abe
00000330: 269a 29bf 38a1 fdbe cd17 dcbe d7ce e3be
00000340: f211 f9bd f441 9cbe c700 a3be 3dc0 27bf
00000350: ed2f 20c0 f1f6 0d3e dc5d 19bf 3718 0f3c
00000360: 00dc 2e3e 1c53 23be 88e1 c93d 11b8 413d
00000370: 9e33 80bf 98b8 16bf 0ffd e7bd cbbe 3bbe
00000380: a1ee 973c 49ba 8cbe 94fa a33d 5b3b 1ebe
00000390: 1836 5cbf f79c 11bf e398 4cbf 684a 173e
000003a0: 8e71 a6bf 45a9 b6bd 2591 ebbc fc56 2fbd
000003b0: 40da 70bf 3fb6 33bf 87fa e23d fe5a 73be
000003c0: 9326 61bf f254 d3bc 3dcb 96bd a1f7 cdbd
000003d0: 0e7c 4abd f1c7 25bf 65b7 70be 5445 ffbe
000003e0: 3a93 bbbe 8a0a d03d bdec f43d a5e5 c4bd
000003f0: f723 9abe a7de 1d3c d207 66bf 13e3 5bbe
-0.00033324028 -0.12758003 0.110821865 0.16694018 -0.46607655 0.037656266 -0.15083407 -0.05681382
-0.26114714 0.13150232 -0.03936786 0.10802713 -0.24511082 0.0061876345 0.1719498 0.10720648
-0.40089673 -0.19742057 0.2136214 -0.27651605 -0.64381015 -0.053957243 -0.5015371 -0.04144474
0.10829944 -0.04932615 -0.29452768 -0.33078927 -0.03530896 0.12562904 -0.35553116 -0.3710968
-0.6014886 -0.2780748 -0.043271426 -0.58247155 -0.26826555 -0.45172137 -0.337972 0.08929558
-0.55211186 -0.06051081 -0.060341157 -0.25657102 -1.0292462 0.035386123 -0.46497643 -0.07803161
-0.28503713 -0.18596178 -0.1596792 -0.37262067 0.019711014 -0.04828902 -0.2984322 -0.15298757
-0.12609614 -0.5482806 -0.5443155 -0.40126994 0.06912284 -0.18230395 0.0781757 -0.18974903
-0.4034485 -0.37950373 0.04749025 -0.3438211 0.014612215 -0.29379058 -0.020733142 -0.30412284
0.104718275 0.13799807 -0.2538029 -0.47139 0.14666402 -0.06944088 0.06492289 0.004589965
-0.09105837 0.08368902 -0.062412363 0.11931125 -1.3379064 -0.06446983 -0.34413925 -0.11150947
-0.17416266 -0.41113555 0.00039729517 -0.3955771 -0.0493632 -0.006039439 -0.23569125 -0.35904315
-0.04025254 -0.8257728 0.08240018 0.13672681 0.031019656 0.10804791 -0.058253128 -0.078519605
-0.46399853 -0.173784 -0.26891527 -0.198077 -0.04114827 -0.093753934 -0.25155732 -0.362343
-0.4537651 -0.20686768 -0.13372484 -0.028763631 -0.03486137 -0.07045277 -0.06579684 0.09637849
-0.2407634 -0.11165053 -0.23816445 -0.23641285 0.041008238 -0.0034237138 -0.21311465 -0.14357927
-0.1984085 -0.00020389054 -0.52185434 0.2306533 -0.9178666 -0.24527559 0.15290345 -0.5356468
-1.0068954 0.023736002 -0.8617297 0.0843134 0.06855753 -0.35220754 0.20183244 -0.7631824
-0.8363921 0.05897744 0.13957547 -0.33395502 -0.17529383 -0.10668258 -0.46343935 -0.97839963
-0.13688909 0.03084744 -0.24934065 -1.139658 -0.2937109 0.16139622 -0.17733693 -1.3264592
-0.44854066 0.04757227 -0.08484735 -1.3173958 -0.5523288 -0.18438758 -0.6828193 -0.28942734
-0.9541775 -0.6650742 -0.12203196 -0.071915366 -1.5796056 -0.2585501 -0.4476977 -0.06720129
-0.014677475 -0.6808308 -0.03383665 0.08223831 -0.28555217 -0.48395258 -0.21990217 -0.03772986
0.0265906 -0.123396985 -0.056753255 0.07822399 0.081383765 -0.4073532 -0.20234954 -0.2694473
-0.15935458 -0.4752308 -0.82294184 0.07372653 0.16309476 -0.01980876 -0.56018335 -0.36634165
-0.25552994 0.09980812 -0.2576675 -0.30229434 -0.66250837 -0.49537063 -0.4298691 -0.44493744
-0.12161626 -0.30519068 -0.3183653 -0.6552771 -2.5029252 0.13863732 -0.59908843 0.008733801
0.17076111 -0.15949672 0.0985747 0.04729468 -1.0015752 -0.5887542 -0.11327564 -0.183345
0.018546404 -0.27485874 0.08006778 -0.1545233 -0.8602004 -0.56880134 -0.79920787 0.14774477
-1.3003404 -0.08919004 -0.028755734 -0.042807564 -0.94083023 -0.7019996 0.110829405 -0.2376518
-0.87949485 -0.025797341 -0.073629834 -0.10056997 -0.049434714 -0.6475821 -0.2350746 -0.4985758
-0.36635762 0.1015826 0.11959217 -0.09614114 -0.30105564 0.009635604 -0.8985568 -0.2147334

sequential_2/conv2d_4/Conv2D f4 [32, 3, 3, 1]
00000000: 09c2 f33e 7a3e 09bf ddf7 92bf 03dc 22be
00000010: c430 85be ed5c e9bf 8975 e8bc 4b64 29bd
00000020: db04 8cbd 4846 09bf 6d4e 713e 7e78 80be
00000030: ebf9 a33d 530f 433d 0197 cdbe e435 14bf
00000040: 5a38 a43e bb13 a13d 5634 57be 0a05 1abf
00000050: c899 f83e 0642 83be 270e 1d3e 44e5 54be
00000060: 602f bfbd 275e cf3e ac3a acbe 415a 3bbe
00000070: 2157 c33e d016 10be ed83 87be 167c 3f3e
00000080: d818 b03d 4470 b8be 0c61 5a3e 8055 d13d
00000090: a528 9abe 2651 5abc a78c 8c3e 0083 a33e
000000a0: f76a a83e 29ce 06be 16af 9abd fb08 d2be
000000b0: 6557 6abe 8569 d63d bedb b8be 755d 19bf
000000c0: 1b36 aa3e a7a1 4c3d b28f 25be 8861 e33d
000000d0: b0ed 963d f144 ac3c 49fe d83d 22a5 47be
000000e0: e297 c4be e95d 86be 04bb aebe 566c 8c3e
000000f0: 4cb5 86bd 6b02 713e 0606 3f3e bdf0 1a3e
00000100: bbe2 18be 8918 a03d 6587 b73e ea3f 35be
00000110: f934 36be 1fc0 ba3e 84fe 94be 5799 1fbe
00000120: 2e61 673e 8166 103e a920 b5be 02f1 013e
00000130: f4b5 db3d 3561 60be e69e 313e 2c1d 973d
00000140: 61fc 90be a29c cb3e 57cf 35be 3c70 bcbe
00000150: 27f7 4f3d 2b1b 8d3d 312d 4c3e db7b 42be
00000160: 8445 63be fd09 aa3e 68e0 c9be bfba b8be
00000170: afb6 d73d 7c13 3d3e 83be 193e 25d5 8b3e
00000180: 716b 893e 777c cd3c 3956 9ebe 3005 b5be
00000190: 5439 fe3e 4ffb 7bbe 4513 3dbf 97d9 973d
000001a0: 891e 30bd d534 0e3e 0b2f f6bd 08e7 aebd
000001b0: 08e6 0bbe 9d25 c0bd 774c 7f3e dc6c b1bf
000001c0: 5fa5 8cbe c099 9c3e 5cdb 2bbf d459 bb3d
000001d0: a365 f9bd f036 e7be b811 443e 15bd 893e
000001e0: a17b bb3c b5c6 cdbe 18f6 683d 20af 983e
000001f0: a70a 59be aa95 a5be 5bbb 7f3d 4d04 f63d
00000200: 5188 76be 6c5f febd bba3 993e bc22 d1be
00000210: f0d1 16be d423 3d3d 9902 7d3e 7443 c7ba
00000220: c0d1 023e 64dd c7bd 8991 34be da92 be3e
00000230: b6d2 afbe e85a ad3d 8216 313e 5a59 dfbd
00000240: 7692 c9be e064 2ebe b05c 6b3e 24ca 6e3e
00000250: ba39 f6be acc3 3f3e 321d 6bbd d10e d13e
00000260: e600 06bf 7e6f 2bbf 5283 083f c8ae 0c3e
00000270: f473 96bf 4138 ea3d 7be7 98be 92be 68bf
00000280: 002e 13bf abff 973e 3ef9 f33e d100 5cbe
00000290: 6cfb 67be 724e 23be d62e af3d dd06 9c3d
000002a0: 80a3 b5be 3989 823e 977c 9e3d 8cb3 21bb
000002b0: 35ed 96bd 8bb6 3f3e a6c5 b2be 20c5 c83d
000002c0: 4a44 833e 86d3 8fbe 33fb b9bd c63b 213e
000002d0: 4353 7b3e 6688 793e 052d 713e 0015 37bd
000002e0: e071 243e c8de f23d 2797 39be 57cb c7be
000002f0: 4a5e c6be 24c4 02bf 2121 f0bf b307 45bf
00000300: 81d9 823e 33ef 833d 52cb 2e3e d19a 7e3e
00000310: 03e8 a33d 8642 5dbe b507 36bf 5d4d 58bf
00000320: 7187 ab3e 6f31 7a3e 6864 163e 1b9c 2c3d
00000330: 0639 8dbc e414 063e 19cc 03bf 5552 b93d
00000340: eb16 9d3d 2894 4f3e 11d2 61bd 2f2c c43c
00000350: 2676 1c3e 1eb7 a53d 3a7e 1cbb 5980 01be
00000360: 9980 a5bd 6293 8bbe ad39 b73e e1cf 833d
00000370: 54f4 bcbe 31b6 a73e 8609 853e 049a 6cbe
00000380: d0b2 3cbc 07f2 ab3e 44b5 c6be 19e0 a03d
00000390: b642 eb3d f71f b9be 2f16 573e e304 7d3d
000003a0: ec83 f2bb d253 083c 2cbc bc3d 4560 a4bd
000003b0: f1f4 98bd 8b0a 2f3d d9a2 593e b3b5 a2bc
000003c0: 1aea 77be 5eaa 803e aa51 993e fedd b3bf
000003d0: b3e3 29c0 c77b d5be 93d1 233d 1e3b 82bf
000003e0: 96c0 e0bc dc12 2a3c dba0 363e 719b 583e
000003f0: 4129 a53b 9ffa bd3c c7b5 1bbf 1048 3c3d
0.47608975 -0.53610957 -1.1481892 -0.1590424 -0.26013768 -1.8231484 -0.028376358 -0.041355412
-0.068368636 -0.53622866 0.23565073 -0.25091928 0.080066524 0.047622036 -0.4015427 -0.5789473
0.32074243 0.078650914 -0.21016058 -0.6016394 0.48554826 -0.2563631 0.1533743 -0.20790583
-0.09335208 0.4050152 -0.33638513 -0.18296148 0.38152412 -0.14071202 -0.2646784 0.18699679
0.085984886 -0.36023152 0.21326083 0.10221386 -0.30109134 -0.013325011 0.2745106 0.31935883
0.32894108 -0.13164581 -0.07552926 -0.41022477 -0.22884901 0.10469345 -0.3610515 -0.5990823
0.33244404 0.04995885 -0.16168097 0.11102587 0.07369554 0.021028968 0.10595376 -0.19496587
-0.38397127 -0.26243523 -0.34127057 0.27426404 -0.065775484 0.23536079 0.18654642 0.15130897
-0.14930241 0.0781718 0.35845485 -0.17700163 -0.17793645 0.36474702 -0.2910043 -0.15585838
0.22595665 0.14101602 -0.3537648 0.12689593 0.10728064 -0.21912082 0.17345771 0.07378611
-0.2831755 0.3976794 -0.17754875 -0.36804378 0.050772812 0.068899475 0.19939114 -0.1899256
-0.22194487 0.33210745 -0.3942902 -0.36079976 0.10532891 0.18464464 0.1501408 0.27311054
0.26839784 0.025083764 -0.30925158 -0.3535552 0.49653113 -0.24607585 -0.7385753 0.07414549
-0.04299787 0.13887341 -0.120206915 -0.085401595 -0.13661969 -0.09382174 0.24931513 -1.3861346
-0.27469918 0.30586052 -0.6713159 0.09147993 -0.12177589 -0.451591 0.19147384 0.2690207
0.0228861 -0.40190664 0.05687532 0.2982111 -0.2119547 -0.32340747 0.062434535 0.12012539
-0.24075438 -0.12420544 0.3000773 -0.40846813 -0.14728522 0.046176746 0.24708022 -0.0015202598
0.12775326 -0.09759024 -0.17633642 0.37221414 -0.34340447 0.084646046 0.17293742 -0.10905714
-0.39369553 -0.17030668 0.22984576 0.23319298 -0.48090917 0.18726987 -0.05740089 0.40831617
-0.5234512 -0.66967 0.5332538 0.13738549 -1.1754136 0.11436511 -0.29864106 -0.9091579
-0.57492065 0.29687247 0.47651094 -0.21484686 -0.22654504 -0.15947893 0.08553855 0.076184966
-0.35476303 0.25495318 0.077386074 -0.0024673669 -0.073694624 0.18721978 -0.3491642 0.098032236
0.25638038 -0.28091067 -0.090811156 0.15745458 0.2454348 0.24368438 0.2355233 -0.04469776
0.16059065 0.118588984 -0.18124066 -0.39022323 -0.38743812 -0.51080537 -1.876011 -0.76964873
0.25556567 0.06442108 0.17069748 0.24863745 0.08003237 -0.21607408 -0.7110551 -0.84493047
0.3350177 0.2443292 0.1468674 0.04214106 -0.017239105 0.13093907 -0.51483303 0.09048907
0.07670387 0.20271361 -0.055131976 0.02394685 0.15279445 0.080915675 -0.0023878948 -0.12646617
-0.08081169 -0.27260882 0.3578619 0.06436134 -0.36905158 0.3275619 0.25983828 -0.23105627
-0.011517242 0.3358309 -0.3881017 0.07855243 0.114873335 -0.361572 0.21004556 0.06177224
-0.00740098 0.008320766 0.092155784 -0.080261745 -0.07468594 0.042734664 0.21253528 -0.019862032
-0.24210396 0.2512998 0.29945117 -1.4052122 -2.6545227 -0.41695997 0.039994787 -1.0174291
-0.027435582 0.010380473 0.17834799 0.21153046 0.0050403182 0.023190795 -0.60824245 0.04596716
